Torch Version 1.8.0+cu111
<class 'model.tegcn.Model'>
Model(
  (data_bn): BatchNorm1d(102, eps=1e-05, momentum=0.1, affine=True, track_running_stats=True)
  (l1): TCNC_GCN_unit(
    (gcn1): unit_gcn_qkv(
      (ffn): ModuleList(
        (0): Conv2d(3, 64, kernel_size=(1, 1), stride=(1, 1))
        (1): Conv2d(3, 64, kernel_size=(1, 1), stride=(1, 1))
        (2): Conv2d(3, 64, kernel_size=(1, 1), stride=(1, 1))
      )
      (emb_q): ModuleList(
        (0): Conv2d(3, 16, kernel_size=(1, 1), stride=(1, 1))
        (1): Conv2d(3, 16, kernel_size=(1, 1), stride=(1, 1))
        (2): Conv2d(3, 16, kernel_size=(1, 1), stride=(1, 1))
      )
      (emb_k): ModuleList(
        (0): Conv2d(3, 16, kernel_size=(1, 1), stride=(1, 1))
        (1): Conv2d(3, 16, kernel_size=(1, 1), stride=(1, 1))
        (2): Conv2d(3, 16, kernel_size=(1, 1), stride=(1, 1))
      )
      (conv_ta): Conv1d(64, 1, kernel_size=(9,), stride=(1,), padding=(4,))
      (conv_sa): Conv1d(64, 1, kernel_size=(17,), stride=(1,), padding=(8,))
      (fc1c): Linear(in_features=64, out_features=32, bias=True)
      (fc2c): Linear(in_features=32, out_features=64, bias=True)
      (down): Sequential(
        (0): Conv2d(3, 64, kernel_size=(1, 1), stride=(1, 1))
        (1): BatchNorm2d(64, eps=1e-05, momentum=0.1, affine=True, track_running_stats=True)
      )
      (bn): BatchNorm2d(64, eps=1e-05, momentum=0.1, affine=True, track_running_stats=True)
      (soft): Softmax(dim=-2)
      (tan): Tanh()
      (sigmoid): Sigmoid()
      (relu): ReLU(inplace=True)
    )
    (tcn1): unit_tcn_causal(
      (conv): Conv2d(64, 64, kernel_size=(9, 1), stride=(1, 1), padding=(8, 0))
      (bn): BatchNorm2d(64, eps=1e-05, momentum=0.1, affine=True, track_running_stats=True)
      (relu): ReLU(inplace=True)
    )
    (relu): ReLU(inplace=True)
  )
  (l2): TCNC_GCN_unit(
    (gcn1): unit_gcn_qkv(
      (ffn): ModuleList(
        (0): Conv2d(64, 64, kernel_size=(1, 1), stride=(1, 1))
        (1): Conv2d(64, 64, kernel_size=(1, 1), stride=(1, 1))
        (2): Conv2d(64, 64, kernel_size=(1, 1), stride=(1, 1))
      )
      (emb_q): ModuleList(
        (0): Conv2d(64, 16, kernel_size=(1, 1), stride=(1, 1))
        (1): Conv2d(64, 16, kernel_size=(1, 1), stride=(1, 1))
        (2): Conv2d(64, 16, kernel_size=(1, 1), stride=(1, 1))
      )
      (emb_k): ModuleList(
        (0): Conv2d(64, 16, kernel_size=(1, 1), stride=(1, 1))
        (1): Conv2d(64, 16, kernel_size=(1, 1), stride=(1, 1))
        (2): Conv2d(64, 16, kernel_size=(1, 1), stride=(1, 1))
      )
      (conv_ta): Conv1d(64, 1, kernel_size=(9,), stride=(1,), padding=(4,))
      (conv_sa): Conv1d(64, 1, kernel_size=(17,), stride=(1,), padding=(8,))
      (fc1c): Linear(in_features=64, out_features=32, bias=True)
      (fc2c): Linear(in_features=32, out_features=64, bias=True)
      (bn): BatchNorm2d(64, eps=1e-05, momentum=0.1, affine=True, track_running_stats=True)
      (soft): Softmax(dim=-2)
      (tan): Tanh()
      (sigmoid): Sigmoid()
      (relu): ReLU(inplace=True)
    )
    (tcn1): unit_tcn_causal(
      (conv): Conv2d(64, 64, kernel_size=(9, 1), stride=(1, 1), padding=(8, 0))
      (bn): BatchNorm2d(64, eps=1e-05, momentum=0.1, affine=True, track_running_stats=True)
      (relu): ReLU(inplace=True)
    )
    (relu): ReLU(inplace=True)
  )
  (l3): TCNC_GCN_unit(
    (gcn1): unit_gcn_qkv(
      (ffn): ModuleList(
        (0): Conv2d(64, 64, kernel_size=(1, 1), stride=(1, 1))
        (1): Conv2d(64, 64, kernel_size=(1, 1), stride=(1, 1))
        (2): Conv2d(64, 64, kernel_size=(1, 1), stride=(1, 1))
      )
      (emb_q): ModuleList(
        (0): Conv2d(64, 16, kernel_size=(1, 1), stride=(1, 1))
        (1): Conv2d(64, 16, kernel_size=(1, 1), stride=(1, 1))
        (2): Conv2d(64, 16, kernel_size=(1, 1), stride=(1, 1))
      )
      (emb_k): ModuleList(
        (0): Conv2d(64, 16, kernel_size=(1, 1), stride=(1, 1))
        (1): Conv2d(64, 16, kernel_size=(1, 1), stride=(1, 1))
        (2): Conv2d(64, 16, kernel_size=(1, 1), stride=(1, 1))
      )
      (conv_ta): Conv1d(64, 1, kernel_size=(9,), stride=(1,), padding=(4,))
      (conv_sa): Conv1d(64, 1, kernel_size=(17,), stride=(1,), padding=(8,))
      (fc1c): Linear(in_features=64, out_features=32, bias=True)
      (fc2c): Linear(in_features=32, out_features=64, bias=True)
      (bn): BatchNorm2d(64, eps=1e-05, momentum=0.1, affine=True, track_running_stats=True)
      (soft): Softmax(dim=-2)
      (tan): Tanh()
      (sigmoid): Sigmoid()
      (relu): ReLU(inplace=True)
    )
    (tcn1): unit_tcn_causal(
      (conv): Conv2d(64, 64, kernel_size=(9, 1), stride=(1, 1), padding=(8, 0))
      (bn): BatchNorm2d(64, eps=1e-05, momentum=0.1, affine=True, track_running_stats=True)
      (relu): ReLU(inplace=True)
    )
    (relu): ReLU(inplace=True)
  )
  (l4): TCNC_GCN_unit(
    (gcn1): unit_gcn_qkv(
      (ffn): ModuleList(
        (0): Conv2d(64, 64, kernel_size=(1, 1), stride=(1, 1))
        (1): Conv2d(64, 64, kernel_size=(1, 1), stride=(1, 1))
        (2): Conv2d(64, 64, kernel_size=(1, 1), stride=(1, 1))
      )
      (emb_q): ModuleList(
        (0): Conv2d(64, 16, kernel_size=(1, 1), stride=(1, 1))
        (1): Conv2d(64, 16, kernel_size=(1, 1), stride=(1, 1))
        (2): Conv2d(64, 16, kernel_size=(1, 1), stride=(1, 1))
      )
      (emb_k): ModuleList(
        (0): Conv2d(64, 16, kernel_size=(1, 1), stride=(1, 1))
        (1): Conv2d(64, 16, kernel_size=(1, 1), stride=(1, 1))
        (2): Conv2d(64, 16, kernel_size=(1, 1), stride=(1, 1))
      )
      (conv_ta): Conv1d(64, 1, kernel_size=(9,), stride=(1,), padding=(4,))
      (conv_sa): Conv1d(64, 1, kernel_size=(17,), stride=(1,), padding=(8,))
      (fc1c): Linear(in_features=64, out_features=32, bias=True)
      (fc2c): Linear(in_features=32, out_features=64, bias=True)
      (bn): BatchNorm2d(64, eps=1e-05, momentum=0.1, affine=True, track_running_stats=True)
      (soft): Softmax(dim=-2)
      (tan): Tanh()
      (sigmoid): Sigmoid()
      (relu): ReLU(inplace=True)
    )
    (tcn1): unit_tcn_causal(
      (conv): Conv2d(64, 64, kernel_size=(9, 1), stride=(1, 1), padding=(8, 0))
      (bn): BatchNorm2d(64, eps=1e-05, momentum=0.1, affine=True, track_running_stats=True)
      (relu): ReLU(inplace=True)
    )
    (relu): ReLU(inplace=True)
  )
  (l5): TCNC_GCN_unit(
    (gcn1): unit_gcn_qkv(
      (ffn): ModuleList(
        (0): Conv2d(64, 128, kernel_size=(1, 1), stride=(1, 1))
        (1): Conv2d(64, 128, kernel_size=(1, 1), stride=(1, 1))
        (2): Conv2d(64, 128, kernel_size=(1, 1), stride=(1, 1))
      )
      (emb_q): ModuleList(
        (0): Conv2d(64, 32, kernel_size=(1, 1), stride=(1, 1))
        (1): Conv2d(64, 32, kernel_size=(1, 1), stride=(1, 1))
        (2): Conv2d(64, 32, kernel_size=(1, 1), stride=(1, 1))
      )
      (emb_k): ModuleList(
        (0): Conv2d(64, 32, kernel_size=(1, 1), stride=(1, 1))
        (1): Conv2d(64, 32, kernel_size=(1, 1), stride=(1, 1))
        (2): Conv2d(64, 32, kernel_size=(1, 1), stride=(1, 1))
      )
      (conv_ta): Conv1d(128, 1, kernel_size=(9,), stride=(1,), padding=(4,))
      (conv_sa): Conv1d(128, 1, kernel_size=(17,), stride=(1,), padding=(8,))
      (fc1c): Linear(in_features=128, out_features=64, bias=True)
      (fc2c): Linear(in_features=64, out_features=128, bias=True)
      (down): Sequential(
        (0): Conv2d(64, 128, kernel_size=(1, 1), stride=(1, 1))
        (1): BatchNorm2d(128, eps=1e-05, momentum=0.1, affine=True, track_running_stats=True)
      )
      (bn): BatchNorm2d(128, eps=1e-05, momentum=0.1, affine=True, track_running_stats=True)
      (soft): Softmax(dim=-2)
      (tan): Tanh()
      (sigmoid): Sigmoid()
      (relu): ReLU(inplace=True)
    )
    (tcn1): unit_tcn_causal(
      (conv): Conv2d(128, 128, kernel_size=(9, 1), stride=(2, 1), padding=(8, 0))
      (bn): BatchNorm2d(128, eps=1e-05, momentum=0.1, affine=True, track_running_stats=True)
      (relu): ReLU(inplace=True)
    )
    (relu): ReLU(inplace=True)
    (residual): unit_tcn(
      (conv): Conv2d(64, 128, kernel_size=(1, 1), stride=(2, 1))
      (bn): BatchNorm2d(128, eps=1e-05, momentum=0.1, affine=True, track_running_stats=True)
      (relu): ReLU(inplace=True)
    )
  )
  (l6): TA_GCN3D_unit(
    (gcn1): unit_gcn_3d(
      (gcn): unit_gcn_qkv(
        (ffn): ModuleList(
          (0): Conv2d(128, 128, kernel_size=(1, 1), stride=(1, 1))
          (1): Conv2d(128, 128, kernel_size=(1, 1), stride=(1, 1))
          (2): Conv2d(128, 128, kernel_size=(1, 1), stride=(1, 1))
        )
        (emb_q): ModuleList(
          (0): Conv2d(128, 32, kernel_size=(1, 1), stride=(1, 1))
          (1): Conv2d(128, 32, kernel_size=(1, 1), stride=(1, 1))
          (2): Conv2d(128, 32, kernel_size=(1, 1), stride=(1, 1))
        )
        (emb_k): ModuleList(
          (0): Conv2d(128, 32, kernel_size=(1, 1), stride=(1, 1))
          (1): Conv2d(128, 32, kernel_size=(1, 1), stride=(1, 1))
          (2): Conv2d(128, 32, kernel_size=(1, 1), stride=(1, 1))
        )
        (conv_ta): Conv1d(128, 1, kernel_size=(9,), stride=(1,), padding=(4,))
        (conv_sa): Conv1d(128, 1, kernel_size=(51,), stride=(1,), padding=(25,))
        (fc1c): Linear(in_features=128, out_features=64, bias=True)
        (fc2c): Linear(in_features=64, out_features=128, bias=True)
        (bn): BatchNorm2d(128, eps=1e-05, momentum=0.1, affine=True, track_running_stats=True)
        (soft): Softmax(dim=-2)
        (tan): Tanh()
        (sigmoid): Sigmoid()
        (relu): ReLU(inplace=True)
      )
    )
    (ta1): Multi_Head_Temporal_Attention(
      (multi_head_attention): ModuleList(
        (0): Temporal_Attention(
          (embedding_Q): Conv2d(128, 128, kernel_size=(1, 1), stride=(1, 1))
          (embedding_K): Conv2d(128, 128, kernel_size=(1, 1), stride=(1, 1))
          (embedding_V): Conv2d(128, 128, kernel_size=(1, 1), stride=(1, 1))
          (attention): Attention()
        )
      )
      (drop): Dropout(p=0.0, inplace=False)
      (norm): LayerNorm((2176,), eps=2176, elementwise_affine=True)
      (ffn): Conv2d(128, 128, kernel_size=(1, 1), stride=(1, 1))
      (relu): ReLU(inplace=True)
    )
    (relu): ReLU(inplace=True)
  )
  (l7): TA_GCN3D_unit(
    (gcn1): unit_gcn_3d(
      (gcn): unit_gcn_qkv(
        (ffn): ModuleList(
          (0): Conv2d(128, 128, kernel_size=(1, 1), stride=(1, 1))
          (1): Conv2d(128, 128, kernel_size=(1, 1), stride=(1, 1))
          (2): Conv2d(128, 128, kernel_size=(1, 1), stride=(1, 1))
        )
        (emb_q): ModuleList(
          (0): Conv2d(128, 32, kernel_size=(1, 1), stride=(1, 1))
          (1): Conv2d(128, 32, kernel_size=(1, 1), stride=(1, 1))
          (2): Conv2d(128, 32, kernel_size=(1, 1), stride=(1, 1))
        )
        (emb_k): ModuleList(
          (0): Conv2d(128, 32, kernel_size=(1, 1), stride=(1, 1))
          (1): Conv2d(128, 32, kernel_size=(1, 1), stride=(1, 1))
          (2): Conv2d(128, 32, kernel_size=(1, 1), stride=(1, 1))
        )
        (conv_ta): Conv1d(128, 1, kernel_size=(9,), stride=(1,), padding=(4,))
        (conv_sa): Conv1d(128, 1, kernel_size=(51,), stride=(1,), padding=(25,))
        (fc1c): Linear(in_features=128, out_features=64, bias=True)
        (fc2c): Linear(in_features=64, out_features=128, bias=True)
        (bn): BatchNorm2d(128, eps=1e-05, momentum=0.1, affine=True, track_running_stats=True)
        (soft): Softmax(dim=-2)
        (tan): Tanh()
        (sigmoid): Sigmoid()
        (relu): ReLU(inplace=True)
      )
    )
    (ta1): Multi_Head_Temporal_Attention(
      (multi_head_attention): ModuleList(
        (0): Temporal_Attention(
          (embedding_Q): Conv2d(128, 128, kernel_size=(1, 1), stride=(1, 1))
          (embedding_K): Conv2d(128, 128, kernel_size=(1, 1), stride=(1, 1))
          (embedding_V): Conv2d(128, 128, kernel_size=(1, 1), stride=(1, 1))
          (attention): Attention()
        )
      )
      (drop): Dropout(p=0.0, inplace=False)
      (norm): LayerNorm((2176,), eps=2176, elementwise_affine=True)
      (ffn): Conv2d(128, 128, kernel_size=(1, 1), stride=(1, 1))
      (relu): ReLU(inplace=True)
    )
    (relu): ReLU(inplace=True)
  )
  (l8): TCNC_GCN3D_unit(
    (gcn1): unit_gcn_3d(
      (gcn): unit_gcn_qkv(
        (ffn): ModuleList(
          (0): Conv2d(128, 256, kernel_size=(1, 1), stride=(1, 1))
          (1): Conv2d(128, 256, kernel_size=(1, 1), stride=(1, 1))
          (2): Conv2d(128, 256, kernel_size=(1, 1), stride=(1, 1))
        )
        (emb_q): ModuleList(
          (0): Conv2d(128, 64, kernel_size=(1, 1), stride=(1, 1))
          (1): Conv2d(128, 64, kernel_size=(1, 1), stride=(1, 1))
          (2): Conv2d(128, 64, kernel_size=(1, 1), stride=(1, 1))
        )
        (emb_k): ModuleList(
          (0): Conv2d(128, 64, kernel_size=(1, 1), stride=(1, 1))
          (1): Conv2d(128, 64, kernel_size=(1, 1), stride=(1, 1))
          (2): Conv2d(128, 64, kernel_size=(1, 1), stride=(1, 1))
        )
        (conv_ta): Conv1d(256, 1, kernel_size=(9,), stride=(1,), padding=(4,))
        (conv_sa): Conv1d(256, 1, kernel_size=(51,), stride=(1,), padding=(25,))
        (fc1c): Linear(in_features=256, out_features=128, bias=True)
        (fc2c): Linear(in_features=128, out_features=256, bias=True)
        (down): Sequential(
          (0): Conv2d(128, 256, kernel_size=(1, 1), stride=(1, 1))
          (1): BatchNorm2d(256, eps=1e-05, momentum=0.1, affine=True, track_running_stats=True)
        )
        (bn): BatchNorm2d(256, eps=1e-05, momentum=0.1, affine=True, track_running_stats=True)
        (soft): Softmax(dim=-2)
        (tan): Tanh()
        (sigmoid): Sigmoid()
        (relu): ReLU(inplace=True)
      )
    )
    (tcn1): unit_tcn_causal(
      (conv): Conv2d(256, 256, kernel_size=(9, 1), stride=(2, 1), padding=(8, 0))
      (bn): BatchNorm2d(256, eps=1e-05, momentum=0.1, affine=True, track_running_stats=True)
      (relu): ReLU(inplace=True)
    )
    (relu): ReLU(inplace=True)
    (residual): unit_tcn(
      (conv): Conv2d(128, 256, kernel_size=(1, 1), stride=(2, 1))
      (bn): BatchNorm2d(256, eps=1e-05, momentum=0.1, affine=True, track_running_stats=True)
      (relu): ReLU(inplace=True)
    )
  )
  (l9): TA_GCN3D_unit(
    (gcn1): unit_gcn_3d(
      (gcn): unit_gcn_qkv(
        (ffn): ModuleList(
          (0): Conv2d(256, 256, kernel_size=(1, 1), stride=(1, 1))
          (1): Conv2d(256, 256, kernel_size=(1, 1), stride=(1, 1))
          (2): Conv2d(256, 256, kernel_size=(1, 1), stride=(1, 1))
        )
        (emb_q): ModuleList(
          (0): Conv2d(256, 64, kernel_size=(1, 1), stride=(1, 1))
          (1): Conv2d(256, 64, kernel_size=(1, 1), stride=(1, 1))
          (2): Conv2d(256, 64, kernel_size=(1, 1), stride=(1, 1))
        )
        (emb_k): ModuleList(
          (0): Conv2d(256, 64, kernel_size=(1, 1), stride=(1, 1))
          (1): Conv2d(256, 64, kernel_size=(1, 1), stride=(1, 1))
          (2): Conv2d(256, 64, kernel_size=(1, 1), stride=(1, 1))
        )
        (conv_ta): Conv1d(256, 1, kernel_size=(9,), stride=(1,), padding=(4,))
        (conv_sa): Conv1d(256, 1, kernel_size=(51,), stride=(1,), padding=(25,))
        (fc1c): Linear(in_features=256, out_features=128, bias=True)
        (fc2c): Linear(in_features=128, out_features=256, bias=True)
        (bn): BatchNorm2d(256, eps=1e-05, momentum=0.1, affine=True, track_running_stats=True)
        (soft): Softmax(dim=-2)
        (tan): Tanh()
        (sigmoid): Sigmoid()
        (relu): ReLU(inplace=True)
      )
    )
    (ta1): Multi_Head_Temporal_Attention(
      (multi_head_attention): ModuleList(
        (0): Temporal_Attention(
          (embedding_Q): Conv2d(256, 256, kernel_size=(1, 1), stride=(1, 1))
          (embedding_K): Conv2d(256, 256, kernel_size=(1, 1), stride=(1, 1))
          (embedding_V): Conv2d(256, 256, kernel_size=(1, 1), stride=(1, 1))
          (attention): Attention()
        )
      )
      (drop): Dropout(p=0.0, inplace=False)
      (norm): LayerNorm((4352,), eps=4352, elementwise_affine=True)
      (ffn): Conv2d(256, 256, kernel_size=(1, 1), stride=(1, 1))
      (relu): ReLU(inplace=True)
    )
    (relu): ReLU(inplace=True)
  )
  (l10): TA_GCN3D_unit(
    (gcn1): unit_gcn_3d(
      (gcn): unit_gcn_qkv(
        (ffn): ModuleList(
          (0): Conv2d(256, 256, kernel_size=(1, 1), stride=(1, 1))
          (1): Conv2d(256, 256, kernel_size=(1, 1), stride=(1, 1))
          (2): Conv2d(256, 256, kernel_size=(1, 1), stride=(1, 1))
        )
        (emb_q): ModuleList(
          (0): Conv2d(256, 64, kernel_size=(1, 1), stride=(1, 1))
          (1): Conv2d(256, 64, kernel_size=(1, 1), stride=(1, 1))
          (2): Conv2d(256, 64, kernel_size=(1, 1), stride=(1, 1))
        )
        (emb_k): ModuleList(
          (0): Conv2d(256, 64, kernel_size=(1, 1), stride=(1, 1))
          (1): Conv2d(256, 64, kernel_size=(1, 1), stride=(1, 1))
          (2): Conv2d(256, 64, kernel_size=(1, 1), stride=(1, 1))
        )
        (conv_ta): Conv1d(256, 1, kernel_size=(9,), stride=(1,), padding=(4,))
        (conv_sa): Conv1d(256, 1, kernel_size=(51,), stride=(1,), padding=(25,))
        (fc1c): Linear(in_features=256, out_features=128, bias=True)
        (fc2c): Linear(in_features=128, out_features=256, bias=True)
        (bn): BatchNorm2d(256, eps=1e-05, momentum=0.1, affine=True, track_running_stats=True)
        (soft): Softmax(dim=-2)
        (tan): Tanh()
        (sigmoid): Sigmoid()
        (relu): ReLU(inplace=True)
      )
    )
    (ta1): Multi_Head_Temporal_Attention(
      (multi_head_attention): ModuleList(
        (0): Temporal_Attention(
          (embedding_Q): Conv2d(256, 256, kernel_size=(1, 1), stride=(1, 1))
          (embedding_K): Conv2d(256, 256, kernel_size=(1, 1), stride=(1, 1))
          (embedding_V): Conv2d(256, 256, kernel_size=(1, 1), stride=(1, 1))
          (attention): Attention()
        )
      )
      (drop): Dropout(p=0.0, inplace=False)
      (norm): LayerNorm((4352,), eps=4352, elementwise_affine=True)
      (ffn): Conv2d(256, 256, kernel_size=(1, 1), stride=(1, 1))
      (relu): ReLU(inplace=True)
    )
    (relu): ReLU(inplace=True)
  )
  (fc): Linear(in_features=256, out_features=155, bias=True)
)
[ Fri Oct 18 02:05:31 2024 ] using warm up, epoch: 5
[ Fri Oct 18 02:05:31 2024 ] Parameters:
{'work_dir': 'work_dir/2102', 'model_saved_name': 'runs/2102', 'config': './config/train.yaml', 'phase': 'train', 'save_score': True, 'seed': 777, 'log_interval': 100, 'save_interval': 1, 'eval_interval': 5, 'print_log': True, 'show_topk': [1, 5], 'feeder': 
…
